experiments/dqn_trial/weights/agent_0.pt (torch, 21960 bytes, 6 tensors)

fc1.weight f4 [64, 6]
0.00864476 -0.11325729 -0.15169626 -0.111991316 -0.22230293 -0.089719355 0.49540508 -0.00041655102
0.47876135 -0.2867203 0.044120364 -0.2631797 0.42144054 -0.36841312 0.3990952 -0.12944476
-0.14984152 -0.20741114 0.06939964 0.14837524 0.24888422 -0.4454603 0.06641681 -0.1931484
-0.22573383 -0.19136365 0.17122069 0.19742043 -0.24839307 -0.09547156 -0.21003795 0.19565071
-0.27059904 0.13649134 -0.33618277 -0.20846859 -0.16754094 -0.0069310963 -0.3373679 0.1585226
-0.39743227 0.0017940104 -0.2881297 -0.018436015 -0.27222556 -0.056512058 -0.033556044 -0.39319736
-0.35794467 0.048779834 -0.12927279 -0.30550995 -0.3211417 0.12529075 -0.13546194 -0.07618517
0.10267391 0.13997719 0.10338822 0.25685894 0.44767314 0.37403962 0.22899051 -0.05445999
0.28104696 -0.37830853 -0.30870497 0.015170839 -0.13610648 -0.41861084 0.057353 -0.32200065
-0.26960883 0.07844278 -0.29814723 0.1614637 -0.0426917 0.014817422 -0.23821181 0.15796739
-0.022391412 0.43407032 0.093382545 0.071564294 -0.04053762 -0.1811673 -0.27415216 -0.3156264
-0.29510865 0.068046406 0.22029126 0.15345497 -0.2782328 -0.09354493 -0.104876034 -0.07484168
0.6934296 0.21481985 0.39015782 0.23066932 -0.05626231 0.11036529 -0.17044058 -0.2948167
-0.022206549 0.08795983 0.029151114 -0.16724503 -0.38714254 -0.021084324 -0.06370737 -0.35562888
0.14700912 -0.0643847 0.18040957 0.22828457 0.22254868 0.2459919 -0.26429173 0.26566672
0.17214288 -0.2919599 -0.58961165 -0.03519803 -0.10432774 0.14209941 0.13120297 0.39430976
0.45100203 0.23275611 -0.2554249 0.2677385 -0.44090116 0.2800623 -0.12478858 0.30553424
-0.09530323 -0.23963879 -0.22552578 -0.30686405 -0.9234074 0.13872954 0.2698371 -0.19852266
-0.5246225 0.0074056587 -0.05212811 -0.2252179 -0.34311378 0.23822342 -0.02190871 0.13974477
-0.06369168 -0.10183168 -0.35813266 -0.24862699 -0.018711116 0.16732822 -0.30594563 0.1248705
-0.19811085 -0.5354013 -0.095785014 0.2651842 0.4479112 -0.27388725 -0.08033431 -0.062268395
0.12452423 -0.09267189 -0.25629777 -0.28911963 -0.29949972 0.0008448052 -0.2856427 0.30599818
-0.020741547 0.016906317 -0.053750273 -0.21861266 0.13734053 0.033908207 -0.38405877 0.4006835
-0.07190811 -0.037301786 -0.0046806694 -0.10274826 -0.084141694 -0.43316495 -0.45367685 0.12450716
-0.18302418 -0.32520822 -0.4062276 -0.16971089 -0.104655206 -0.23047738 0.18952842 0.16667096
0.3622029 0.26900533 -0.16221003 0.30831978 0.0408405 -0.17480162 0.086175434 0.028193317
0.09879496 0.17481431 0.29687044 -1.2017665 -0.3844055 0.16458914 0.056657538 0.2167339
0.16587313 -0.036628075 0.15139529 0.38932803 -0.016593918 0.17559987 -0.089382924 0.29311302
-0.087836996 0.007851754 0.30645922 0.34323463 0.056208156 0.2107816 0.11887785 0.21035792
0.122979335 0.07621887 -0.5102885 0.14289747 -0.21128947 -0.021674622 0.16529661 -0.39557302
0.59190243 -0.086724624 -0.095984735 0.58155376 0.018868275 0.31562763 -0.2464684 -0.41630855
-0.6130631 -0.04690544 0.23139784 -0.061471026 -0.32578543 0.1692161 -0.43342805 0.083073124
00000000: c0a2 0d3c 70f3 e7bd 4456 1bbe b45b e5bd
00000010: 61a3 63be c8be b7bd bca5 fd3e 8864 dab9
00000020: 3520 f53e 01cd 92be 8eb7 343d 7dbf 86be
00000030: 0ec7 d73e a5a0 bcbe 3556 cc3e 2b8d 04be
00000040: 0e70 19be 9663 54be 6621 8e3d aeef 173e
00000050: 81db 7e3e 5f13 e4be 8905 883d b2c8 45be
00000060: c526 67be d5f4 43be 7a54 2f3e 9528 4a3e
00000070: c15a 7ebe 9886 c3bd 3014 57be a958 483e
00000080: f58b 8abe 63c4 0b3e 2620 acbe ca78 55be
00000090: da8f 2bbe 401e e3bb 7cbb acbe c053 223e
000000a0: 3e7c cbbe 0025 eb3a bc85 93be 2007 97bc
000000b0: 2661 8bbe 3079 67bd 1072 09bd 2a51 c9be
000000c0: 8644 b7be 5dcd 473d 1660 04be cd6b 9cbe
000000d0: af6c a4be 384c 003e 89b6 0abe f806 9cbd
000000e0: b346 d23d 2e56 0f3e 34bd d33d 0483 833e
000000f0: 6a35 e53e 1f82 bf3e 7d7c 6a3e 7011 5fbd
00000100: 63e5 8f3e a8b1 c1be 940e 9ebe 1c8f 783c
00000110: 7f5f 0bbe 2954 d6be fbea 6a3d 45dd a4be
00000120: 2b0a 8abe 9ca6 a03d c1a6 98be bd56 253e
00000130: 7edd 2ebd c6c4 723c cced 73be 34c2 213e
00000140: 326e b7bc 773e de3e 593f bf3d 4d90 923d
00000150: c70a 26bd ec83 39be ac5d 8cbe c999 a1be
00000160: 7b18 97be ea5b 8b3d 0894 613e 4d23 1d3e
00000170: 8874 8ebe 7c94 bfbd 3fc9 d6bd 9846 99bd
00000180: 9a84 313f bcf9 5b3e c4c2 c73e 9434 6c3e
00000190: 4f73 66bd 3207 e23d fa87 2ebe 37f2 96be
000001a0: 82ea b5bc 4924 b43d 51ce ee3c 4842 2bbe
000001b0: 8c37 c6be 08b9 acbc 0279 82bd fd14 b6be
000001c0: 8f89 163e 20dc 83bd 49bd 383e 6ec3 693e
000001d0: cde3 633e 4de5 7b3e 3f51 87be 7805 883e
000001e0: 3946 303e c57b 95be caf0 16bf cf2b 10bd
000001f0: c8a9 d5bd 8282 113e 125a 063e f8e2 c93e
00000200: bde9 e63e 9e57 6e3e 0dc7 82be 0515 893e
00000210: ccbd e1be 5364 8f3e 2891 ffbd fc6e 9c3e
00000220: 572e c3bd df63 75be 3bf0 66be 491d 9dbe
00000230: 6d64 6cbf 1e0f 0e3e 1728 8a3e 8649 4bbe
00000240: a94d 06bf 2bab f23b 4984 55bd 859f 66be
00000250: 9cac afbe d7f0 733e e579 b3bc 4119 0f3e
00000260: c970 82bd 218d d0bd 2a5d b7be 1398 7ebe
00000270: 0e48 99bc 1758 2b3e e8a4 9cbe 1bbc ff3d
00000280: 92dd 4abe 0f10 09bf ef2a c4bd 39c6 873e
00000290: 9e54 e53e f33a 8cbe 5186 a4bd 250d 7fbd
000002a0: 8f06 ff3d c3ca bdbd 7639 83be 7d07 94be
000002b0: 0758 99be eb75 5d3a c33f 92be cbab 9c3e
000002c0: 2dea a9bc 1e7f 8a3c 3f29 5cbd ffdb 5fbe
000002d0: ffa2 0c3e 55e3 0a3d 5aa3 c4be 6326 cd3e
000002e0: 8f44 93bd c2c9 18bd 4d60 99bb ae6d d2bd
000002f0: 7b52 acbd ccc7 ddbe 5548 e8be 9cfd fe3d
00000300: b16a 3bbe b181 a6be 10fd cfbe b1c8 2dbe
00000310: 7855 d6bd 4302 6cbe bd13 423e cbab 2a3e
00000320: a972 b93e 11bb 893e 631a 26be 17dc 9d3e
00000330: 5e48 273d 32ff 32be bf7c b03d acf5 e63c
00000340: 0355 ca3d 8602 333e 67ff 973e 7cd3 99bf
00000350: ccd0 c4be 0e8a 283e bc11 683d 7eef 5d3e
00000360: a5da 293e 5207 16bd 5e07 1b3e 0156 c73e
00000370: f8ef 87bc 74d0 333e 650e b7bd e912 963e
00000380: e2e3 b3bd a5a4 003c 39e8 9c3e 73bc af3e
00000390: 863a 663d 22d7 573e 3b76 f33d 1168 573e
000003a0: 97dc fb3d a418 9c3d 44a2 02bf b753 123e
000003b0: 445c 58be fa8e b1bc 8443 293e 8c88 cabe
000003c0: eb86 173f ae9c b1bd a593 c4bd b5e0 143f
000003d0: a491 9a3c f299 a13e 3662 7cbe 6526 d5be
000003e0: b4f1 1cbf eb1f 40bd 8ef3 6c3e 0bc9 7bbd
000003f0: 59cd a6be fc46 2d3e 48ea ddbe 3e22 aa3d

fc1.bias f4 [64]
0.39079833 -0.17001808 0.29575744 0.008914193 -0.43095306 0.07731947 0.14030397 0.25789845
0.11398309 0.16804114 0.5727958 -0.018757997 -0.2999961 -0.24014093 -0.07987771 0.21532677
0.33796653 0.029750774 -0.30451608 0.54544455 0.1859496 0.11429935 -0.080925085 -0.05747949
-0.28328687 0.012821941 0.07810016 0.026626155 -0.14904575 -0.3289707 -0.32173118 -0.2843794
-0.34456882 -0.059526876 -0.19263458 0.40993494 -0.074566536 0.19371386 -0.09655406 -0.040009048
0.012440321 -0.12724078 -0.23128399 -0.14317751 -0.43796155 -0.4184244 -0.29252365 -0.18410982
0.28288347 -0.40881082 0.0043862225 -0.48594704 0.16001181 0.23565632 -0.13643694 0.46702087
0.16630013 -0.5980269 -0.12692766 0.8231738 -0.24105315 -0.13348985 -0.3467289 -0.23164605
00000000: b816 c83e 3819 2ebe 856d 973e d60c 123c
00000010: e1a5 dcbe ac59 9e3d d8ab 0f3e 440b 843e
00000020: f76f e93d fa12 2c3e bfa2 123f 5faa 99bc
00000030: 1799 99be 81e7 75be ed96 a3bd 9f7e 5c3e
00000040: f309 ad3e e5b7 f33c 88e9 9bbe 41a2 0b3f
00000050: 9269 3e3e c715 ea3d 0dbc a5bd 9d6f 6bbd
00000060: fa0a 91be 1e13 523c faf2 9f3d 181f da3c
00000070: 739f 18be d96e a8be f3b9 a4be 2d9a 91be
00000080: 536b b0be 74d2 73bd 0042 45be fee2 d13e
00000090: 57b6 98bd ed5c 463e 23be c5bd 87e0 23bd
000000a0: 7dd2 4b3c 684b 02be b6d5 6cbe 209d 12be
000000b0: 7f3c e0be b93b d6be a9c5 95be 4987 3cbe
000000c0: 1ad6 903e a74f d1be 4dba 8f3b 0dce f8be
000000d0: 23da 233e e44f 713e 20b6 0bbe 5c1d ef3e
000000e0: 954a 2a3e 4a18 19bf 53f9 01be 85bb 523f
000000f0: a3d6 76be 90b1 08be 7386 b1be 9f34 6dbe

fc2.weight f4 [64, 64]
-0.023303896 -0.048758224 -0.045631558 -0.091120064 0.08136409 -0.119748905 0.11461395 0.072285295
-0.060403094 -0.0095901275 0.042057313 -0.08992852 -0.11963322 -0.016977187 0.029288918 0.036424134
0.0009199568 -0.08608481 0.074134655 -0.07004542 -0.13773096 -0.04376201 0.11366239 -0.05049767
-0.07115579 -0.097946 -0.08966525 -0.09682018 0.09099123 -0.12149304 -0.099254765 0.12149023
-0.04645072 -0.057605326 -0.059127573 0.039713584 -0.07390838 -0.05764871 0.065770224 -0.116753556
0.002287115 0.0077635646 -0.09215386 -0.039115842 0.02907174 0.06162846 0.023301437 -0.04587581
0.06528528 0.06781402 0.024534091 0.04275213 0.11724819 -0.040829204 0.05781412 -0.038763307
-0.11587188 -0.042312063 0.07013166 -0.011647868 0.032366216 -0.06909563 0.07229283 0.013580784
0.019845456 0.04807049 -0.117017105 -0.0669055 -0.062535 0.017613482 -0.06917061 -0.12085195
0.08619932 -0.044902194 -0.12038986 0.023295399 -0.13725334 0.09103785 0.11957125 -0.04064597
0.037907276 -0.08433318 0.021105925 -0.032547675 0.09452671 0.0071191993 0.069124475 0.031350017
0.08505074 0.044470564 -0.028570427 -0.022185965 0.112547964 0.035975095 0.014189474 0.054121178
-0.042483777 0.0021241242 -0.07001039 0.06872778 -0.03237246 -0.05746998 -0.104771435 -0.07828058
-0.048062995 -0.07889676 0.04695371 0.081452236 0.064428575 0.020184971 0.08627178 0.042465404
-0.03898715 0.07344406 -0.017795023 -0.14065014 -0.11988568 -0.06780922 0.07922746 0.074473605
-0.013160325 -0.080955654 -0.027218759 0.086653724 0.019832686 -0.081193715 -0.0607735 0.09583472
-0.059253678 -0.1061864 0.079188436 -0.017147958 0.032417502 0.046451144 -0.0519702 -0.025550738
0.080604725 -0.022464003 -0.0012040412 -0.15057835 -0.06520904 -0.006975397 0.0107334405 -0.003446307
-0.16997896 0.01498282 -0.07241304 -0.040023856 -0.10380425 -0.00061577203 0.03452521 0.07520604
0.0859053 -0.030574635 -0.07236988 0.09527029 0.03668345 0.015910737 -0.09209951 0.11744993
-0.023227975 0.07361769 -0.1068602 0.06887997 -0.16794717 -0.025554212 -0.12941192 0.067098975
0.024680981 -0.06700213 -0.07853322 0.015057966 -0.05969114 0.034012772 0.07317698 -0.14402083
0.054352198 -0.031124515 0.10368009 0.13624574 -0.1087413 -0.0710213 0.080761015 0.03712542
-0.11474268 -0.108709 0.023612231 -0.017957546 -0.120752916 -0.019314438 0.013123811 0.046859026
0.028650895 -0.095216416 -0.038142618 -0.098710164 0.05371486 0.014110278 -0.058422074 0.02275011
-0.034399465 -0.07903042 0.047662567 -0.058263525 0.0019219833 -0.05855729 -0.019262105 0.09744008
0.03667899 -0.0222167 0.08093648 -0.009946161 0.09857244 0.036078185 -0.051203985 0.07967407
0.055666298 -0.09716159 -0.03083568 -0.033500288 0.025376445 0.043200728 0.076430455 -0.09456988
-0.0064644217 -0.16074398 -0.14095777 0.041048232 -0.07874477 -0.07181927 0.041108534 -0.04563747
0.045716602 0.050030306 0.024903813 0.06385899 -0.08744378 0.07086815 0.010248348 -0.03505998
-0.0012837271 0.04494929 -0.052043896 -0.007572911 -0.06493858 -0.0077599334 -0.104187146 -0.027794452
-0.09927448 0.015016331 -0.12571049 -0.0324938 0.046062306 -0.15616012 0.0038529406 -0.01686126
00000000: d0e7 bebc b4b6 47bd 28e8 3abd 289d babd
00000010: 37a2 a63d ea3e f5bd b8ba ea3d 500a 943d
00000020: 3c69 77bd e91f 1dbc 4a44 2c3d 722c b8bd
00000030: 4302 f5bd be13 8bbc 50ef ef3c 7931 153d
00000040: 4129 713a 3c4d b0bd e9d3 973d f973 8fbd
00000050: 5809 0dbe cb3f 33bd d4c7 e83d a5d6 4ebd
00000060: 20ba 91bd ea97 c8bd 6aa2 b7bd a949 c6bd
00000070: 9c59 ba3d 58d1 f8bd 1546 cbbd dfcf f83d
00000080: 1c43 3ebd 90f3 6bbd c12f 72bd b6aa 223d
00000090: 475d 97bd 0e21 6cbd 8ab2 863d 7d1c efbd
000000a0: 6ce3 153b 8065 fe3b 2abb bcbd ef37 20bd
000000b0: dc27 ee3c 206e 7c3d a8e2 be3c 46e8 3bbd
000000c0: 4ab4 853d 14e2 8a3d b8fb c83c dc1c 2f3d
000000d0: d21f f03d 863c 27bd 80ce 6c3d 46c6 1ebd
000000e0: 3c4e edbd 6a4f 2dbd 30a1 8f3d b3d6 3ebc
000000f0: 7092 043d 0282 8dbd 430e 943d f081 5e3c
00000100: f092 a23c 90e5 443d aaa6 efbd c005 89bd
00000110: 5a12 80bd 264a 903c 52a9 8dbd 3a81 f7bd
00000120: 4589 b03d 5deb 37bd f58e f6bd fed5 be3c
00000130: 248c 0cbe 0d72 ba3d c6e1 f43d 637c 26bd
00000140: a944 1b3d e0b6 acbd 55e6 ac3c b650 05bd
00000150: 3897 c13d 2c48 e93b 2291 8d3d e068 003d
00000160: 152f ae3d c426 363d 870c eabc 57bf b5bc
00000170: 8c7f e63d 9f5a 133d f87a 683c 2bae 5d3d
00000180: 7803 2ebd e434 0b3b 9b61 8fbd 26c1 8c3d
00000190: fc98 04bd a465 6bbd 6892 d6bd 9251 a0bd
000001a0: b4dd 44bd a094 a1bd 8952 403d 6ed0 a63d
000001b0: 21f3 833d f45a a53c 42af b03d 34f0 2d3d
000001c0: fdb0 1fbd d769 963d dec6 91bc 9706 10be
000001d0: a086 f5bd 8fdf 8abd 0242 a23d 9e85 983d
000001e0: 679e 57bc 14cc a5bd e0f9 debc 8277 b13d
000001f0: 2878 a23c e448 a6bd a2ed 78bd fe44 c43d
00000200: fcb3 72bd 4178 d9bd 8c2d a23d e079 8cbc
00000210: 37c8 043d 8e43 3e3d b4de 54bd c84f d1bc
00000220: 1714 a53d 6e06 b8bc ebd0 9dba 3631 1abe
00000230: 518c 85bd df91 e4bb 50db 2f3c 70db 61bb
00000240: f70e 2ebe 807a 753c 4a4d 94bd 0ef0 23bd
00000250: 5397 d4bd c36b 21ba 4e6a 0d3d a005 9a3d
00000260: 1eef af3d a877 fabc a936 94bd 121d c33d
00000270: 6341 163d 3c57 823c ab9e bcbd 9789 f03d
00000280: 9848 bebc dfc4 963d 85d9 dabd f110 8d3d
00000290: 58fa 2bbe 1157 d1bc 8f84 04be 306b 893d
000002a0: c52f ca3c 6a38 89bd 06d6 a0bd b0b5 763c
000002b0: b27e 74bd fa50 0b3d d0dd 953d 327a 13be
000002c0: 69a0 5e3d d7f8 febc 3a56 d43d 0184 0b3e
000002d0: c2b3 debd 9e73 91bd 0866 a53d d310 183d
000002e0: 36fe eabd d3a2 debd 706e c13c b41b 93bc
000002f0: 4e4d f7bd 5039 9ebc 4105 573c 40ef 3f3d
00000300: 48b5 ea3c d300 c3bd 6f3b 1cbd 8e28 cabd
00000310: 1d04 5c3d cc2e 673c fc4b 6fbd 705e ba3c
00000320: 74e6 0cbd b3da a1bd d339 433d bca5 6ebd
00000330: 0feb fb3a c5d9 6fbd 90cb 9dbc aa8e c73d
00000340: b53c 163d ccff b5bc 06c2 a53d 39f5 22bc
00000350: 59e0 c93d b8c6 133d 45bb 51bd 292c a33d
00000360: 5802 643d a8fc c6bd 1c9b fcbc 9937 09bd
00000370: 43e2 cf3c 3ff3 303d 9287 9c3d daad c1bd
00000380: 80d3 d3bb 129a 24be 3c57 10be 3122 283d
00000390: f044 a1bd fb15 93bd 6c61 283d 5bee 3abd
000003a0: 5541 3b3d 94ec 4c3d 1503 cc3c 81c8 823d
000003b0: b915 b3bd 5223 913d b0e8 273c 0e9b 0fbd
000003c0: bc42 a8ba bf1c 383d fb2b 55bd 2f26 f8bb
000003d0: 85fe 84bd 0a47 febb 1260 d5bd 31b1 e3bc
000003e0: 6b50 cbbd 0f07 763c 40ba 00be 3818 05bd
000003f0: d4ab 3c3d 70e8 1fbe 9e81 7c3b a020 8abc

fc2.bias f4 [64]
-0.115527965 -0.1403568 -0.10682897 -0.07535475 -0.16756152 -0.09384209 -0.15793937 -0.07032543
-0.009081362 0.00022761337 -0.0053755837 -0.09763039 0.019372437 0.39566827 -0.036378507 -0.008275225
-0.14538428 -0.031752836 -0.115370646 -0.03888186 -0.083739564 0.02960018 -0.029458383 -0.05651095
-0.14525 0.085639395 0.0153481765 0.052414313 -0.12967205 0.04896891 -0.036572978 0.08625219
-0.009780318 -0.06195789 -0.008049327 -0.15127136 -0.11739095 0.043067783 -0.012565486 0.0030637
0.044183586 0.055268157 -0.0712894 -0.14286597 0.07178526 -0.052802417 -0.06731403 -0.15799433
0.04500626 -0.14517383 0.04173619 0.060086805 -0.060374558 0.03289218 -0.09447837 0.0014585573
-0.10506838 -0.10671836 -0.022976648 0.026998878 -0.037692104 -0.02075199 0.02928619 -0.09570812
00000000: ed99 ecbd b1b9 0fbe 26c9 dabd 9753 9abd
00000010: 3f95 2bbe 4830 c0bd dcba 21be c706 90bd
00000020: fec9 14bc 80ab 6e39 aa25 b0bb 71f2 c7bd
00000030: f2b2 9e3c 0895 ca3e a101 15bd cf94 07bc
00000040: 9edf 14be 430f 02bd 7247 ecbd 9642 1fbd
00000050: a67f abbd 147c f23c b552 f1bc 0778 67bd
00000060: 6abc 14be b563 af3d eb76 7b3c 64b0 563d
00000070: c0c8 04be a093 483d 8ccd 15bd fda4 b03d
00000080: a03d 20bc 8ec7 7dbd 53e1 03bc e1e6 1abe
00000090: ab6a f0bd d867 303d 78df 4dbc 5bc8 483b
000000a0: d9f9 343d dd60 623d 2d00 92bd 754b 12be
000000b0: 2704 933d 5947 58bd f0db 89bd 44c9 21be
000000c0: 7c58 383d 73a8 14be 91f3 2a3d 951d 763d
000000d0: 504b 77bd f3b9 063d e07d c1bd 102d bf3a
000000e0: 172e d7bd 288f dabd 8639 bcbc c02c dd3c
000000f0: 0963 1abd 1400 aabc 98e9 ef3c 9e02 c4bd

fc3.weight f4 [5, 64]
-0.0043220487 0.074901804 0.083410665 0.07280508 0.05026211 0.11259923 0.0005463303 0.06531456
-0.08237942 0.024148896 0.10311603 0.024066782 0.042421985 -0.119341865 0.011864545 0.03302808
0.04535024 0.025291642 0.045484766 0.087400146 0.051197715 -0.019352898 -0.01932839 0.08657673
-0.007433304 -0.11146944 0.046127826 -0.053630374 0.03356647 0.04632105 -0.09482836 0.13258784
0.050090767 -0.06148071 -0.04089133 0.037951827 0.026654078 -0.009372022 -0.105697975 -0.04616455
-0.066127986 -0.076224625 -0.058845922 0.040114075 0.030854177 0.079744786 -0.049199022 0.074844934
-0.06564562 -0.05573641 -0.0151857855 0.009309596 -0.047873974 -0.014724375 -0.050878808 -0.051778223
0.072424516 -0.09822706 0.06506968 0.11224956 0.009897898 -0.052018933 -0.024439303 0.08357718
0.013850122 0.07403219 -0.07249943 0.086034685 -0.012140884 0.030004961 -0.08459793 -0.07494849
-0.12929086 -0.034700897 0.050369382 0.06324722 -0.0036693471 -0.13967547 -0.020977674 -0.111038074
-0.10761155 -0.06397077 0.0828831 -0.08237604 -0.070655555 0.03774537 0.042421322 -0.081801124
0.021130053 -0.09692482 0.06065804 0.028137645 -0.031648405 -0.10305563 0.06176681 0.09369708
-0.053680412 0.0566531 -0.0025791405 -0.12476255 0.03614282 -0.095955804 -0.008155677 0.03559375
-0.008712371 -0.028246086 0.123031795 -0.027266502 0.040674567 0.05260703 -0.080876715 -0.06252668
-0.08431111 0.030471578 0.014984507 0.08487434 -0.03530155 0.014635883 -0.027799396 0.030780487
-0.07803678 -0.07951762 0.050013375 -0.036268294 0.060594242 -0.038519982 0.042786803 0.091958344
0.07661766 -0.0015460168 0.086906634 0.02587837 0.042835947 -0.044809863 0.00041563026 0.006221415
0.05804136 0.06468974 -0.012998867 0.011659116 0.008619892 -0.12473922 0.024920715 0.07660558
-0.109121636 0.050045535 -0.04184416 -0.026740747 0.07609884 0.090938136 0.028167784 0.07447035
0.06836892 -0.09392263 -0.058219567 0.057387747 0.0800271 0.035454065 -0.062172234 -0.0373078
0.04572514 -0.0035015675 0.016782032 -0.04953024 -0.011458102 -0.12357483 0.037241835 -0.037375785
0.06796028 -0.023368087 -0.10497348 0.026079828 -0.04889139 -0.08805496 0.086302266 -0.012414291
-0.003217131 -0.052158237 -0.04543525 -0.041023906 -0.028100878 -0.049324363 0.0010074625 0.054864503
0.033547577 0.037373986 0.043064073 -0.008615593 0.052559823 0.06307313 0.018682765 -0.03585256
-0.020171892 0.07238951 0.10845846 0.106728 0.048775963 0.00736422 0.0036411355 0.03978251
0.035189107 -0.05522659 -0.012167265 0.059225515 0.020554574 -0.13638386 -0.04688343 0.056105506
0.08043328 -0.011043043 0.09913204 -0.043716878 0.0785739 0.066773795 0.01165793 0.037460666
-0.02028377 -0.10464425 -0.045531582 -0.07611012 -0.07676164 0.09467399 0.05409439 -0.021300267
-0.09993364 -0.021536171 0.002667966 0.015486268 0.07231233 0.032458503 -0.037597165 -0.033823058
-0.049704976 -0.06895143 -0.066459805 -0.0012417528 0.071162894 0.059135526 -0.035454664 -0.035160404
-0.008304924 -0.08556092 -0.06361657 0.07139413 -0.10550985 0.05230702 -0.012798997 0.0645042
-0.03401859 -0.10033805 0.020776737 -0.014635093 0.05369835 0.0876938 -0.05309349 -0.0022733372
00000000: f99f 8dbb 1e66 993d 36d3 aa3d d41a 953d
00000010: a4df 4d3d 6d9a e63d 9b37 0f3a a4c3 853d
00000020: 8bb6 a8bd e8d3 c53c 7f2e d33d b327 c53c
00000030: adc2 2d3d 8269 f4bd 8263 423c 7448 073d
00000040: 2cc1 393d 6b30 cf3c 3c4e 3a3d d9fe b23d
00000050: b2b4 513d f889 9ebc 9256 9ebc 244f b13d
00000060: 1393 f3bb 174a e4bd 88f0 3c3d 86ab 5bbd
00000070: ff7c 093d 24bb 3d3d 5f35 c2bd 1bc5 073e
00000080: fa2b 4d3d 32d3 7bbd ab7d 27bd 6073 1b3d
00000090: a759 da3c 1c8d 19bc 2e78 d8bd 0a17 3dbd
000000a0: 1c6e 87bd a81b 9cbd 6c08 71bd a84e 243d
000000b0: e6c1 fc3c 3c51 a33d ea84 49bd 4d48 993d
000000c0: 3671 86bd dd4b 64bd cdcd 78bc 4787 183c
000000d0: 8017 44bd 813e 71bc 4c66 50bd 6715 54bd
000000e0: 4e53 943d 452b c9bd 4143 853d 19e3 e53d
000000f0: cb2a 223c ce11 55bd ef34 c8bc 832a ab3d
00000100: 9feb 623c 309e 973d 957a 94bd f432 b03d
00000110: 8fea 46bc f7cc f53c ae41 adbd 987e 99bd
00000120: d364 04be 8722 0ebd 2050 4e3d c287 813d
00000130: 6e79 70bb 1607 0fbe 5fd9 abbc ee67 e3bd
00000140: 7263 dcbd 1b03 83bd 9dbe a93d c5b4 a8bd
00000150: dcb3 90bd e49a 1a3d fbc1 2d3d 5987 a7bd
00000160: ef18 ad3c 8580 c6bd 9174 783d eb80 e63c
00000170: c2a1 01bd d50e d3bd 32ff 7c3d 41e4 bf3d
00000180: fedf 5bbd 150d 683d cc06 29bb 8283 ffbd
00000190: 7e0a 143d 7a84 c4bd 639f 05bc c1ca 113d
000001a0: 55be 0ebc 5664 e7bc 18f8 fb3d 005e dfbc
000001b0: 609a 263d 787a 573d b1a2 a5bd fd0d 80bd
000001c0: 4eab acbd 889f f93c 9481 753c 99d2 ad3d
000001d0: 5c98 10bd 58cb 6f3c 8fbb e3bc 5c27 fc3c
000001e0: bfd1 9fbd 22da a2bd d3da 4c3d 108e 14bd
000001f0: ab31 783d 21c7 1dbd 3741 2f3d a854 bc3d
00000200: b8e9 9c3d b7a3 caba 1bfc b13d e0fe d33c
00000210: bf74 2f3d 8c8a 37bd f3e8 d939 03dd cb3b
00000220: c7bc 6d3d 0e7c 843d 33f9 54bc e005 3f3c
00000230: 733a 0d3c 4777 ffbd 8726 cc3c 63e3 9c3d
00000240: 2a7b dfbd 8cfc 4c3d c864 2bbd 690f dbbc
00000250: b5d9 9b3d c63d ba3d 20c0 e63c e983 983d
00000260: 0105 8c3d 825a c0bd a477 6ebd 6a0f 6b3d
00000270: 40e5 a33d 4838 113d 50a8 7ebd 10d0 18bd
00000280: 494a 3b3d 8e7a 65bb 797a 893c 39e0 4abd
00000290: c3ba 3bbc cd14 fdbd e58a 183d 5a17 19bd
000002a0: c22e 8b3d 6e6e bfbc 56fc d6bd 5da5 d53c
000002b0: 5742 48bd 2956 b4bd 3ebf b03d 4f65 4bbc
000002c0: 80d6 52bb e0a3 55bd 501a 3abd af08 28bd
000002d0: d033 e6bc 5808 4abd d50c 843a 9ab9 603d
000002e0: 2f69 093d 7715 193d f463 303d 6b28 0dbc
000002f0: f848 573d 7c2c 813d 990c 993c 22da 12bd
00000300: 863f a5bc f440 943d 781f de3d 3694 da3d
00000310: 4ec9 473d 8e4f f13b 1ea0 6e3b fcf2 223d
00000320: 7422 103d 4735 62bd 3559 47bc 7496 723d
00000330: 1162 a83c 36a8 0bbe d708 40bd e3ce 653d
00000340: 34ba a43d e1ed 34bc bd05 cb3d 7810 33bd
00000350: 5aeb a03d b3c0 883d e700 3f3c 5b70 193d
00000360: 262a a6bc b94f d6bd 537f 3abd 9fdf 9bbd
00000370: 3535 9dbd 70e4 c13d 1492 5d3d e67d aebc
00000380: 02aa ccbd a06c b0bc 0bd9 2e3b 1eba 7d3c
00000390: 7d18 943d 35f3 043d 7cff 19bd 0c8a 0abd
000003a0: 7297 4bbd 6836 8dbd 141c 88bd 4fc2 a2ba
000003b0: dabd 913d 1838 723d e938 11bd 5b04 10bd
000003c0: 6011 08bc 903a afbd 6749 82bd 1637 923d
000003d0: 8c15 d8bd e33f 563d e2b2 51bc c71a 843d
000003e0: 1457 0bbd 097e cdbd fa33 aa3c 07c8 6fbc
000003f0: cdf2 5b3d cf98 b33d 8f78 59bd 45fc 14bb

fc3.bias f4 [5]
-0.38151947 -0.17793863 -0.293425 -0.21389861 -0.24401058
00000000: 8556 c3be 8b35 36be cd3b 96be 3d08 5bbe
00000010: e9dd 79be
