experiments/dqn_trial/weights/agent_1.pt (torch, 21960 bytes, 6 tensors)

fc1.weight f4 [64, 6]
0.50867546 0.5060543 0.7858254 0.5870033 -0.20298979 0.0446072 -0.20330176 -0.45757043
0.11766891 -0.13630715 -0.33355397 -0.013638045 0.41117045 0.7349702 -0.123566926 -0.071820065
-0.11259841 0.4338167 0.22304834 -0.31336668 -0.13004504 -0.24618013 -0.10350976 -0.21970735
0.22849527 -0.119022995 -0.45195457 -0.28097814 -0.21763282 -0.02966641 -0.16810274 0.19137406
-0.29796582 -0.030671077 -0.15939525 -0.13349675 0.17415911 -0.19798312 -0.18764634 -0.10594669
-0.26037526 -0.20154451 0.27816346 0.51688194 0.118224815 0.19051188 -0.120711066 0.23504843
-0.37547004 0.14966346 -0.39099365 0.27196681 -0.43229407 0.05214257 0.07872339 0.6994504
0.49017414 0.50207 0.20142668 0.016766313 0.17498614 -0.1656533 0.31963515 -0.38188654
-0.37661824 -0.18584082 0.4773377 -1.8127198 0.19423397 0.4473023 0.04842991 -0.0064075924
0.33541876 0.3217181 -0.22900404 -0.11072023 -0.25309345 0.25857174 -0.45638102 0.09333609
-0.023016553 0.28610834 -0.24574672 -0.21560025 0.6233566 0.03605292 0.6116516 0.3608269
0.0071308287 0.3752388 0.49720064 0.62823814 0.5475173 0.15845786 0.13509598 -0.12637256
-0.41845363 -0.35055032 0.036917534 -0.3029213 0.053701658 -0.13162091 0.26950648 -0.22794825
-0.3957473 0.20939228 -0.41265967 -0.11980668 -0.1032853 -0.22159739 0.059085738 -0.2133605
0.03298918 -0.40858698 -0.19422658 -0.031958345 -0.24250403 -0.420334 0.05943678 -0.29656556
-0.0538816 0.5802831 -0.074583955 -0.24223381 0.00950012 0.06498384 0.6406744 0.2345051
0.008221474 0.45488003 0.275263 0.33281812 0.011595387 0.7224625 0.6200711 0.6498567
-0.04541176 -0.086766765 -0.19912808 -0.22603807 0.3516703 -0.09286827 -0.24489099 -0.08013394
0.34989133 -1.241799 0.107410744 -0.17509188 0.12624756 -0.08111989 -0.39065412 0.09869761
-0.36716732 -0.24002784 0.0116318045 -0.14006016 -0.47167328 -0.1296199 -0.19385248 0.23596494
0.09344114 -0.4804747 -0.40006846 0.024847895 -0.18006329 -0.3490095 -0.013933361 0.03405896
0.23124443 0.87877005 0.46898457 0.7003463 -0.1659764 -0.096511565 0.47236332 0.061471444
0.4008402 0.37329087 0.20729333 -0.28855366 -0.26351753 0.040014125 -0.00971023 -0.483903
-0.31376112 0.118648514 0.008437847 -0.34369302 0.37186208 0.40433788 -0.2952359 -0.1265243
-0.34327567 -0.2198834 -0.20028803 0.13582718 -0.15967825 -0.22386567 0.52867615 0.22890128
0.46175334 0.83701617 0.06531435 0.019348701 0.06347146 -2.2086947 0.0683088 0.20912082
0.15293974 0.23966908 -0.11767879 -0.22028154 -0.27479708 0.34339207 -0.116042435 -0.34251896
0.25174865 -0.031720042 -1.3294765 0.32524312 0.18395908 -0.19714984 -0.2115196 -0.1807286
-0.031148927 -0.5443845 -0.22695783 0.13274056 -0.56813127 -0.24168532 0.1428119 -0.3082626
-0.0422526 0.04689141 -0.50757253 0.15795735 -0.32385966 -0.05390606 -0.14366835 0.12891082
0.23718534 0.44129217 0.0744487 0.42918047 -0.18241237 0.054921377 -0.38672605 0.035080392
-0.13919528 0.03295048 0.09724194 0.01159391 0.22356442 -0.8955124 0.018063452 -0.19986466
00000000: 8e38 023f c68c 013f da2b 493f d945 163f
00000010: 8edc 4fbe 0ab6 363d 562e 50be ac46 eabe
00000020: 66fc f03d 1a94 0bbe 96c7 aabe 1b72 5fbc
00000030: ef84 d23e 0227 3c3f a810 fdbd 6616 93bd
00000040: ff99 e6bd 391d de3e c966 643e 9971 a0be
00000050: 872a 05be a516 7cbe edfc d3bd f7fa 60be
00000060: aafa 693e 54c2 f3bd 9766 e7be 5edc 8fbe
00000070: 23db 5ebe f906 f3bc 2023 2cbe 90f7 433e
00000080: fa8e 98be e941 fbbc 8238 23be 5fb3 08be
00000090: c456 323e 16bc 4abe 5d26 40be 94fa d8bd
000000a0: e84f 85be af61 4ebe 716b 8e3e 6052 043f
000000b0: da1f f23d 8c15 433e 5d37 f7bd 89b0 703e
000000c0: 9c3d c0be 6141 193e 5230 c8be 3c3f 8b3e
000000d0: a655 ddbe 7393 553d bb39 a13d 2e0f 333f
000000e0: 1bf8 fa3e a987 003f cc42 4e3e 8259 893c
000000f0: 912f 333e 05a1 29be 38a7 a33e a286 c3be
00000100: 1bd4 c0be 0e4d 3ebe 9b65 f43e 3407 e8bf
00000110: 45e5 463e cf04 e53e 715e 463d c8f6 d1bb
00000120: 02bc ab3e 3cb8 a43e 0980 6abe 4ac1 e2bd
00000130: 7795 81be 8463 843e c6aa e9be fe26 bf3d
00000140: 368d bcbc cb7c 923e 07a5 7bbe 50c6 5cbe
00000150: 4c94 1f3f 3aac 133d 3395 1c3f 4ebe b83e
00000160: baa9 e93b 4d1f c03e 1591 fe3e 37d4 203f
00000170: 182a 0c3f c742 223e 9a56 0a3e cf67 01be
00000180: 8e3f d6be 557b b3be d736 173d 8018 9bbe
00000190: 45f6 5b3d a2c7 06be c1fc 893e 446b 69be
000001a0: 649f cabe ee6a 563e 2148 d3be 345d f5bd
000001b0: 3e87 d3bd 6dea 62be e303 723d 2d7b 5abe
000001c0: aa1f 073d 5032 d1be 55e3 46be c1e6 02bd
000001d0: fa52 78be 0536 d7be fb73 733d 71d7 97be
000001e0: f4b2 5cbd 6f8d 143f 79bf 98bd 240c 78be
000001f0: 64a6 1b3c 3f16 853d 3d03 243f 1b22 703e
00000200: 5cb3 063c 09e6 e83e 46ef 8c3e 2367 aa3e
00000210: 94fa 3d3c 4df3 383f fbbc 1e3f 025d 263f
00000220: af01 3abd c6b2 b1bd 3be8 4bbe 8676 67be
00000230: 210e b43e b831 bebd b4c4 7abe 431d a4bd
00000240: f524 b33e 45f3 9ebf 2afa db3d 494b 33be
00000250: 0a47 013e 2f22 a6bd d103 c8be f921 ca3d
00000260: 5bfd bbbe dcc9 75be 5393 3e3c ee6b 0fbe
00000270: 297f f1be 14bb 04be 4481 46be cba0 713e
00000280: 125e bf3d c800 f6be c6d5 ccbe d08d cb3c
00000290: 8362 38be 60b1 b2be c048 64bc 6881 0b3d
000002a0: 57cb 6c3e 13f7 603f bf1e f03e e549 333f
000002b0: b8f5 29be dba7 c5bd 9bd9 f13e 7bc9 7b3d
000002c0: ed3a cd3e fb1f bf3e b444 543e 4ebd 93be
000002d0: c5eb 86be dae5 233d a817 1fbc 22c2 f7be
000002e0: 4ca5 a0be fefd f23d e53e 0a3c 88f8 afbe
000002f0: b564 be3e 6005 cf3e 2929 97be 968f 01be
00000300: d4c1 afbe 1d29 61be 4e18 4dbe 4816 0b3e
00000310: b282 23be 0b3d 65be 5257 073f 1965 6a3e
00000320: ef6a ec3e b146 563f 88c3 853d 2b81 9e3c
00000330: 53fd 813d 415b 0dc0 7ce5 8b3d c523 563e
00000340: 3c9c 1c3e d06b 753e 9401 f1bd 7c91 61be
00000350: 34b2 8cbe 16d1 af3e a8a7 edbd a55e afbe
00000360: 33e5 803e e0ec 01bd 492c aabf 4486 a63e
00000370: c55f 3c3e a6e1 49be 9898 58be eb10 39be
00000380: 092c ffbc c85c 0bbf a267 68be 24ed 073e
00000390: 0d71 11bf 5b7c 77be 483d 123e 98d4 9dbe
000003a0: 1011 2dbd 3511 403d 46f0 01bf 92bf 213e
000003b0: efd0 a5be 9acc 5cbd cc1d 13be 3301 043e
000003c0: b7e0 723e 0cf1 e13e 8f78 983d 8bbd db3e
000003d0: 4fca 3abe 3df5 603d f500 c6be 75b0 0f3d
000003e0: 3589 0ebe 15f7 063d c826 c73d 62f4 3d3c
000003f0: 12ee 643e 4d40 65bf cef9 933c 52a9 4cbe

fc1.bias f4 [64]
0.59921426 -0.3227044 0.0707801 0.054528527 0.013782539 -0.2947149 -0.31466237 0.58165026
-0.20316112 0.29188976 -0.10475005 -0.22793986 0.19840677 0.035264835 0.5592493 0.3059121
-0.026378872 -0.43150988 -0.44199958 0.022662051 0.5354213 -0.10450333 0.6874002 -0.049856994
-0.17471315 0.14454977 -0.068792515 0.058997333 0.3355451 -0.1568131 -0.41229522 -0.20552573
0.28794187 0.59065694 0.081679046 0.40054506 0.011987107 -0.32609436 -0.06297058 -0.47668883
0.25188762 -0.46931306 -0.25866675 0.21382812 0.11074301 0.61145467 -0.28804842 0.056409575
0.323854 -0.44041184 -0.06618781 0.27831787 -0.033161618 -0.43530482 -0.46530148 0.006073773
0.15266147 0.14357147 0.017463667 -0.13665308 -0.26823682 -0.04020804 -0.4749146 0.10709096
00000000: 1b66 193f 8339 a5be 28f5 903d 4e59 5f3d
00000010: 29d0 613c dfe4 96be 6d1b a1be 08e7 143f
00000020: 7809 50be 9372 953e 3287 d6bd 1169 69be
00000030: 252b 4b3e dc71 103d f62a 0f3f 83a0 9c3e
00000040: 8118 d8bc ddee dcbe c54d e2be c4a5 b93c
00000050: 5f11 093f d805 d6bd 76f9 2f3f d936 4cbd
00000060: 01e8 32be db04 143e 17e3 8cbd 30a7 713d
00000070: 91cc ab3e 9d93 20be 5c18 d3be 5675 52be
00000080: 1e6d 933e 4b35 173f 5847 a73d 3e14 cd3e
00000090: 9265 443c d7f5 a6be b8f6 80bd 8f10 f4be
000000a0: 6af7 803e cd49 f0be f86f 84be c2f5 5a3e
000000b0: 3bcd e23d 4b88 1c3f 157b 93be ba0d 673d
000000c0: 31d0 a53e a97d e1be 798d 87bd ae7f 8e3e
000000d0: 7ad4 07bd 46e0 debe ff3b eebe 8006 c73b
000000e0: 4a53 1c3e 6604 133e f70f 8f3c c9ee 0bbe
000000f0: 5656 89be 30b1 24bd 0228 f3be 8152 db3d

fc2.weight f4 [64, 64]
-0.0012123109 0.12453307 -0.059656188 0.071513206 0.11456613 0.052161332 -0.08512519 -0.016787209
0.09670235 -0.011826313 -0.057468113 0.06725938 0.014562974 -0.0055191964 -0.06275039 -0.11190281
-0.02377273 -0.038919017 0.035348877 -0.09700035 0.039496727 0.018983915 0.10290965 -0.07858759
0.044517368 -0.11509106 0.09654057 0.00047698617 -0.09557587 0.026496137 -0.05501536 -0.057249647
-0.122033924 -0.027588949 -0.10736853 -0.060030773 -0.07764453 0.039454557 -0.08974276 0.05807066
0.029488739 -0.1237941 0.07954799 -0.032255948 0.075792015 -0.11037151 -0.11674608 -0.017516732
0.07251054 -0.087573424 -0.021657431 0.007951598 0.02084576 0.11207421 0.02634807 -0.093489796
-0.026904088 -0.1088233 -0.072387785 0.0030875686 0.101583555 -0.10504317 -0.0903672 0.0917621
-0.18175717 0.10032526 0.05596803 0.058391586 0.07747243 -0.03408436 0.09186493 -0.12465121
-0.085278116 0.063815355 -0.099729426 0.08467186 0.007859064 0.048427045 -0.095244244 0.08322874
-0.03402417 0.013004765 -0.051272336 -0.023980504 -0.07409042 -0.079840064 -0.01730665 0.014060885
0.009449214 -0.023496054 -0.11952488 -0.09389335 -0.181735 -0.13957317 -0.13536973 -0.0030910224
0.021166846 -0.08602667 0.06253147 -0.1085771 0.1106453 0.015850982 -0.07037074 -0.047986116
0.06662481 -0.12496394 -0.009050602 0.03836043 -0.036370378 0.0133302575 -0.07054432 -0.046013374
-0.084255934 -0.14725448 0.09712228 -0.007146568 0.0085024545 0.025597997 0.058445077 0.12481919
0.07484693 -0.14890105 0.0223999 0.07293759 0.00015163422 -0.0075936657 -0.08359327 0.026834814
-0.13194737 -0.09412677 0.019746665 0.033728138 -0.022252267 -0.11579591 -0.05128379 -0.03381238
0.09498407 -0.085056715 -0.07703988 0.008241732 -0.05324519 -0.022802964 -0.051136494 -0.13313231
-0.13575129 -0.029031426 0.042456176 -0.046015196 0.056557022 0.058060687 -0.06640965 -0.07175948
0.006960113 -0.03391277 -0.044175193 0.06471707 -0.05346304 0.0823944 -0.008363279 -0.11089741
-0.074970156 -0.17718239 0.062097732 -0.044967756 0.016326744 0.043715943 -0.040940806 0.030741585
0.012965416 -0.1259358 -0.01802739 -0.10965298 0.050046023 -0.079363465 -0.14979382 -0.01754119
0.05076085 -0.14129204 0.027710138 0.02137419 0.028784169 0.09759592 0.076984756 0.036563516
-0.04197358 -0.047305334 0.011696503 -0.0328948 -0.03506078 -0.014345754 0.011438497 0.024784837
0.016086115 -0.011937946 -0.040275425 -0.03857766 -0.061591566 -0.025450185 -0.05526483 -0.08327925
-0.058356762 -0.05395152 0.0010874718 -0.13111393 0.0757758 -0.04455012 -0.06875975 -0.006984861
-0.09156776 0.09818597 -0.12730412 0.01273234 -0.11436236 0.031239683 0.035142105 -0.111059025
-0.043086573 9.127229e-05 -0.0057376027 0.107158065 -0.08547032 -0.06384757 -0.087923795 0.09248851
-0.10305594 0.05281634 -0.08747737 0.03728254 0.06554187 -0.09854795 0.07746819 -0.10465065
-0.012612159 -0.08248335 0.07143811 -0.11374377 0.010480865 -0.025509717 0.054581072 -0.037507564
-0.030056313 0.07276182 -0.0660861 -0.025187314 -0.05530645 -0.10368003 0.114913955 0.118033096
-0.14125039 0.042585712 0.031343937 -0.083384275 0.08747922 -0.06322071 -0.01971139 -0.045385588
00000000: 67e6 9eba 320b ff3d 0c5a 74bd 8475 923d
00000010: a6a1 ea3d 1fa7 553d 1e56 aebd 5485 89bc
00000020: e20b c63d 27c3 41bc af63 6bbd 49bf 893d
00000030: 8a99 6e3c 60da b4bb 4783 80bd 4d2d e5bd
00000040: 07bf c2bc 8c69 1fbd fcc9 103d 1fa8 c6bd
00000050: 52c7 213d 2884 9b3c 4bc2 d23d 88f2 a0bd
00000060: d857 363d ddb4 ebbd 10b7 c53d 0014 fa39
00000070: 48bd c3bd 6d0e d93c c957 61bd 9b7e 6abd
00000080: ecec f9bd 3802 e2bc 08e4 dbbd d4e2 75bd
00000090: 1804 9fbd 1a9b 213d 0dcb b7bd 80db 6d3d
000000a0: 5e92 f13c c387 fdbd 0eea a23d d01e 04bd
000000b0: d838 9b3d 750a e2bd 9218 efbd 407f 8fbc
000000c0: 6880 943d b259 b3bd ed6a b1bc 6b47 023c
000000d0: bac4 aa3c 2a87 e53d e8d7 d73c 9477 bfbd
000000e0: f665 dcbc c0de debd 0c40 94bd ce58 4a3b
000000f0: 0a0b d03d e020 d7bd 7012 b9bd c5ed bb3d
00000100: 8d1e 3abe 5477 cd3d bc3e 653d 042c 6f3d
00000110: dea9 9e3d 0b9c 0bbd ae23 bc3d 2249 ffbd
00000120: 4ba6 aebd a0b1 823d f13e ccbd 7168 ad3d
00000130: 4ec3 003c 705b 463d 6a0f c3bd d473 aa3d
00000140: ee5c 0bbd f011 553c f102 52bd c372 c4bc
00000150: b8bc 97bd 3083 a3bd adc6 8dbc a05f 663c
00000160: e0d0 1a3c cc7a c0bc 76c9 f4bd 284b c0bd
00000170: bd18 3abe 45ec 0ebe 5d9e 0abe c092 4abb
00000180: 1866 ad3c c02e b0bd 8010 803d ac5d debd
00000190: 019a e23d ebd9 813c 891e 90bd 178d 44bd
000001a0: 9772 883d 18ed ffbd fa48 14bc d41f 1d3d
000001b0: 1bf9 14bd 2767 5a3c 8a79 90bd 8578 3cbd
000001c0: 608e acbd e1c9 16be 0ce8 c63d c22d eabb
000001d0: e14d 0b3c e4b2 d13c 1b64 6f3d 34a1 ff3d
000001e0: 5949 993d 8479 18be ff7f b73c 4e60 953d
000001f0: 0000 1f39 49d4 f8bb f332 abbd afd4 db3c
00000200: 361d 07be 89c5 c0bd c2c3 a13c 8426 0a3d
00000210: 634a b6bc 6826 edbd f40e 52bd da7e 0abd
00000220: 0287 c23d 3732 aebd 16c7 9dbd 5408 073c
00000230: a117 5abd 48cd babc 8074 51bd d653 08be
00000240: 6302 0bbe 50d3 edbc 87e6 2d3d 6e7a 3cbd
00000250: 56a8 673d 0bd1 6d3d c801 88bd a2f6 92bd
00000260: a911 e43b 1ee8 0abd 0cf1 34bd 628a 843d
00000270: 10fc 5abd 65be a83d 2206 09bc 2e1e e3bd
00000280: f489 99bd 4d6f 35be 315a 7e3d 1c30 38bd
00000290: aabf 853c 7d0f 333d 8cb1 27bd c7d5 fb3c
000002a0: e56c 543c 50f5 00be 2dae 93bc be91 e0bd
000002b0: 0ffd 4c3d 5089 a2bd 8d63 19be 8bb2 8fbc
000002c0: 9cea 4f3d dcae 10be 5f00 e33c ed18 af3c
000002d0: c7cc eb3c 5fe0 c73d 2faa 9d3d a0c3 153d
000002e0: 7dec 2bbd 3dc3 41bd b0a2 3f3c b3bc 06bd
000002f0: e49b 0fbd 740a 6bbc 8968 3b3c 9209 cb3c
00000300: 07c7 833c 6097 43bc d8f7 24bd 9c03 1ebd
00000310: 7047 7cbd e87c d0bc 605d 62bd 508e aabd
00000320: 8007 6fbd 45fc 5cbd 8089 8e3a bb42 06be
00000330: 5830 9b3d 307a 36bd e9d1 8cbd 43e1 e4bb
00000340: e187 bbbd ba15 c93d 035c 02be 4e9b 503c
00000350: d036 eabd 5dea ff3c 2bf1 0f3d ea72 e3bd
00000360: 8c7b 30bd 7069 bf38 8002 bcbb b075 db3d
00000370: 100b afbd 84c2 82bd 6411 b4bd 9e6a bd3d
00000380: fe0e d3bd f255 583d 5627 b3bd 94b5 183d
00000390: d13a 863d 82d3 c9bd a4a7 9e3d 1453 d6bd
000003a0: 3ba3 4ebc 08ed a8bd 254e 923d 7ef2 e8bd
000003b0: efb7 2b3c c1f9 d0bc 6790 5f3d 88a1 19bd
000003c0: a838 f6bc 2604 953d 2658 87bd a055 cebc
000003d0: 0489 62bd 3256 d4bd 0258 eb3d 56bb f13d
000003e0: f1a3 10be 5b6e 2e3d 8062 003d 60c5 aabd
000003f0: 4e28 b33d dc79 81bd c879 a1bc 3de6 39bd

fc2.bias f4 [64]
0.021054963 -0.11241648 -0.13148557 -0.05584379 -0.023531632 -0.03175414 0.052547734 0.31269816
-0.028633984 0.007192523 -0.011511987 -0.1285417 -0.024422055 -0.008763516 -0.15090074 -0.16118678
0.027417647 -0.16832384 0.50088143 -0.11727098 0.032146752 -0.119896404 0.013270968 0.07082466
0.02526968 -0.104088776 0.36595896 -0.0020661918 0.037884973 -0.062816456 0.0056152376 -0.05161101
-0.053437714 -0.10171971 -0.08305309 0.50370985 0.60908246 -0.020730268 0.36608183 0.059169754
0.07125977 -0.048400093 0.4778859 0.06893489 0.48987496 -0.12264597 -0.10702446 0.01934124
-0.10661232 -0.1845193 -0.008041252 -0.11918666 0.059174474 -0.13475798 0.06723602 -0.092189535
-0.043697916 -0.067258604 -0.13842893 0.06940187 -0.022619065 -0.0881556 -0.07816973 -0.09112426
00000000: 757b ac3c 9d3a e6bd 27a4 06be 75bc 64bd
00000010: 69c5 c0bc a110 02bd 4b3c 573d f919 a03e
00000020: d191 eabc 42af eb3b c69c 3cbc 6fa0 03be
00000030: c310 c8bc da94 0fbc b985 1abe 260e 25be
00000040: f99a e03c 165d 2cbe c439 003f c42b f0bd
00000050: 50ac 033d 3f8c f5bd 796e 593c 850c 913d
00000060: 5c02 cf3c 7f2c d5bd f95e bb3e f268 07bb
00000070: 462d 1b3d eaa5 80bd 0700 b83b 1166 53bd
00000080: 81e1 5abd 6c52 d0bd bd17 aabd 21f3 003f
00000090: d4ec 1b3f 86d2 a9bc 146f bb3e fc5b 723d
000000a0: a4f0 913d 2d3f 46bd 76ad f43e bc2d 8d3d
000000b0: e4d0 fa3e cf2d fbbd a42f dbbd 8571 9e3c
000000c0: 8f57 dabd a1f2 3cbe 75bf 03bc 2318 f4bd
000000d0: ef60 723d fffd 09be 0ab3 893d decd bcbd
000000e0: 96fc 32bd e1be 89bd 50c0 0dbe 9122 8e3d
000000f0: 9e4b b9bc ec8a b4bd 7417 a0bd 5b9f babd

fc3.weight f4 [5, 64]
0.017133068 -0.1033256 -0.005601975 -0.078023575 -0.08095664 -0.012715262 -0.074468784 -0.04544105
0.03769439 0.10675171 -0.07030958 0.08716595 -0.008294118 -0.058691677 -0.005778499 0.058998413
0.045212198 -0.061893962 0.25145113 0.015170633 -0.064445116 -0.007855892 0.004354702 -0.0008727862
0.009933365 -0.0020580154 0.19737634 0.03521731 0.015139773 -0.0034970716 -0.09894755 0.06222927
-0.022739047 -0.10492039 0.051206943 0.16803202 0.22838125 0.031572912 0.30132273 -0.09914717
0.0049496554 -0.078267895 0.386107 -0.06733994 0.3184747 0.020478114 -0.02292025 0.030255985
-0.0557108 -0.024837783 -0.020899035 -0.028590906 -0.111658014 0.006336493 0.012679797 -0.008422286
0.22680287 0.0896082 -0.0063450076 0.024864769 0.008596326 -0.055889286 -0.043106146 0.010837699
-0.117160425 -0.07325334 0.012228016 -0.026006877 0.059461176 0.11979687 0.019611746 0.2609171
0.10608514 -0.014514156 -0.011786309 -0.11894508 0.02035491 0.025787095 -0.06427111 0.012219461
-0.03621077 -0.0751189 0.3581535 0.04985853 -0.0610385 0.034278944 0.024147363 0.043713253
0.09606927 -0.006312772 0.3079177 -0.09144817 0.056936324 0.081947975 -0.021913173 0.028728466
-0.121652015 -0.08579285 -0.008007764 0.3252492 0.32140586 -0.08252932 0.22173369 0.11302169
-0.0033044869 0.029093996 0.31692326 0.042941548 0.25565672 0.031981263 0.027467879 -0.016547129
0.084980346 0.07301396 0.06870243 -0.017793793 0.11973513 0.043801397 0.025505548 0.007646183
0.056767404 0.02697748 -0.018141158 -0.010311562 0.033484664 -0.013689338 0.09458442 -0.080653444
-0.04783991 -0.08802272 -0.06876365 0.07119177 0.06484194 -0.09366168 0.018648494 0.32562894
-0.0062728142 0.37069944 0.005176351 0.05664087 -0.0014214861 0.044598848 0.023510346 0.03005913
0.0011190947 0.011590034 0.3245476 -0.0045037675 -0.030878993 0.032204583 0.030124417 0.0035857225
0.026672628 0.016735602 0.2713503 0.066097364 0.055567753 -0.0048355064 0.013450085 0.020715162
0.05223128 0.08418788 0.03153727 0.1827096 0.25589758 -0.072117254 0.20915642 0.025442347
0.010989614 0.005230998 0.16006416 0.022793919 0.297389 0.039749466 -0.030907258 0.012300307
0.09748466 -0.08173683 -0.022652041 0.030717919 0.0585672 -0.053866975 -9.159744e-05 0.042933818
0.24669914 -0.00900177 0.053765226 0.052323062 0.027707793 -0.06647597 0.06020768 0.025807327
0.06719026 0.11143563 0.061779138 0.10033755 0.106689855 0.019884864 -0.039901167 0.14790541
0.028367462 -0.051732257 -0.07646405 -0.07996391 0.015273946 0.11261183 -0.0513292 0.042935554
-0.05756926 0.09239599 0.31742665 0.013812971 0.06736279 -0.04543978 0.009559633 -0.016091393
-0.010507042 -0.031886645 0.21546152 0.113782495 0.085817136 -0.06381454 0.056476567 0.031077074
-0.0032087197 0.13095486 -0.018923681 0.37980616 0.31344092 0.068961926 0.18214673 -0.03445877
-0.037576273 -0.10255819 0.37227646 0.031119578 0.26335147 -0.09288394 -0.0038772877 0.03802798
0.0026164681 0.012458232 -0.04296519 0.10204511 -0.106450215 0.10892042 0.05579096 0.0076739183
0.17604375 0.047871415 -0.013283086 -0.025797551 0.011765811 -0.03023422 -0.11558623 0.019096073
00000000: a65a 8c3c 5f9c d3bd c690 b7bb d3ca 9fbd
00000010: 98cc a5bd ad53 50bc 1783 98bd 6520 3abd
00000020: 6f65 1a3d a4a0 da3d 78fe 8fbd 1084 b23d
00000030: 0de4 07bc af66 70bd 9059 bdbb 52a8 713d
00000040: 6d30 393d 8684 7dbd 34be 803e 3f8e 783c
00000050: cdfb 83bd 00b6 00bc e3b1 8e3b b1cb 64ba
00000060: 8dbf 223c c5df 06bb 061d 4a3e 0740 103d
00000070: cf0c 783c 202f 65bb 03a5 cabd 1ee4 7e3d
00000080: 3d47 babc 80e0 d6bd 5fbe 513d 9610 2c3e
00000090: c6dc 693e 9952 013d f946 9a3e ac0d cbbd
000000a0: b830 a23b eb4a a0bd d1af c53e 86e9 89bd
000000b0: 1e0f a33e b8c1 a73c 40c3 bbbc 66db f73c
000000c0: 0231 64bd 9b78 cbbc 7434 abbc 7a37 eabc
000000d0: f5ac e4bd 5ba2 cf3b ecbe 4f3c a1fd 09bc
000000e0: 033f 683e 8184 b73d c8e9 cfbb 33b1 cb3c
000000f0: 9bd7 0c3c 2aec 64bd 1290 30bd 9b90 313c
00000100: cef1 efbd d905 96bd 0458 483c 600c d5bc
00000110: 908d 733d 1058 f53d d0a8 a03c ed96 853e
00000120: 2a43 d93d c8cc 6dbc 5d1b 41bc 7a99 f3bd
00000130: 57bf a63c 753f d33c 92a0 83bd 2234 483c
00000140: bf51 14bd f0d7 99bd e55f b73e 7538 4c3d
00000150: 8203 7abd 1468 0c3d b1d0 c53c ab0c 333d
00000160: f7bf c43d 5fdb cebb 64a7 9d3e 2e49 bbbd
00000170: 1036 693d 57d4 a73d 4183 b3bc f657 eb3c
00000180: b124 f9bd 29b4 afbd ff32 03bc 1087 a63e
00000190: 4f8f a43e 2205 a9bd 280e 633e ea77 e73d
000001a0: 1790 58bb 8856 ee3c c443 a23e 7ae3 2f3d
000001b0: 70e5 823e c9fe 023d 5104 e13c d88d 87bc
000001c0: 2d0a ae3d 5888 953d dcb3 8c3d 4ac4 91bc
000001d0: b137 f53d 1869 333d 03f1 d03c d58c fa3b
000001e0: f084 683d e0ff dc3c c49c 94bc d3f1 28bc
000001f0: 3727 093d 3f49 60bc 7ab5 c13d a22d a5bd
00000200: c8f3 43bd 4145 b4bd f5d3 8cbd fecc 913d
00000210: dacb 843d b2d1 bfbd bac4 983c d6b8 a63e
00000220: 2e8c cdbb 51cc bd3e 619e a93b 4200 683d
00000230: 2951 baba 48ad 363d c598 c03c 913e f63c
00000240: 96ae 923a 20e4 3d3c 1a2b a63e 5794 93bb
00000250: f1f5 fcbc f4e8 033d 7bc7 f63c 71fe 6a3b
00000260: 8e80 da3c 1a19 893c 6dee 8a3e 0e5e 873d
00000270: 039b 633d 2b73 9ebb bf5d 5c3c d8b2 a93c
00000280: 77f0 553d b26a ac3d 392d 013d 3a18 3b3e
00000290: 0205 833e 36b2 93bd 1a2d 563e 786c d03c
000002a0: c80d 343c cb68 ab3b dce7 233e 50ba ba3c
000002b0: 5f43 983e 56d0 223d 3831 fdbc 3a87 493c
000002c0: 0aa6 c73d a465 a7bd c690 b9bc 25a4 fb3c
000002d0: 29e4 6f3d 9ea3 5cbd 0018 c0b8 5fdb 2f3d
000002e0: b39e 7c3e 297c 13bc ed38 5c3d b550 563d
000002f0: 74fb e23c 8e24 88bd 549c 763d e369 d33c
00000300: 0c9b 893d 5d38 e43d 1f0c 7d3d c67d cd3d
00000310: 3680 da3d 95e5 a23c 686f 23bd 8474 173e
00000320: e162 e83c 34e5 53bd 2f99 9cbd 1ec4 a3bd
00000330: 933f 7a3c 08a1 e63d 913e 52bd 31dd 2f3d
00000340: bfcd 6bbd 1c3a bd3d bf85 a23e cd4f 623c
00000350: 81f5 893d 101f 3abd 02a0 1c3c 19d2 83bc
00000360: ba25 2cbc 929b 02bd f2a1 5c3e cc06 e93d
00000370: e5c0 af3d 33b1 82bd f953 673d 5995 fe3c
00000380: 6249 52bb 0819 063e d605 9bbc f475 c23e
00000390: 547b a03e e93b 8d3d ac84 3a3e a424 0dbd
000003a0: 94e9 19bd 070a d2bd 059b be3e 7cee fe3c
000003b0: 01d6 863e ef39 bebd 181a 7ebb 3ac3 1b3d
000003c0: 0d79 2b3b 9d1d 4c3c 44fc 2fbd 07fd d03d
000003d0: 9202 dabd ab11 df3d 1085 643d 7e75 fb3b
000003e0: d044 343e d114 443d 4da1 59bc 6355 d3bc
000003f0: 63c5 403c c1ad f7bc 79b8 ecbd 5e6f 9c3c

fc3.bias f4 [5]
0.44332916 0.6249337 0.2811573 0.53805757 0.34136635
00000000: 0afc e23e a8fb 1f3f daf3 8f3e 24be 093f
00000010: 92c7 ae3e
